…
	World size (gpu number): 1
	Require iter number per epoch: 23949
	Total epochs: 51; iters: 1200000.
2023-04-12 06:49:28,260 INFO: Dataset [Image_Pair_Loader] - flare_test is built.
2023-04-12 06:49:28,260 INFO: Number of val images/folders in flare_test: 0
2023-04-12 06:49:29,181 INFO: Network [Uformer] is created.
2023-04-12 06:49:32,122 INFO: Network: DataParallel - Uformer, with parameters: 20,473,888
2023-04-12 06:49:32,123 INFO: Uformer(
  embed_dim=32, token_projection=linear, token_mlp=ffn,win_size=8
  (pos_drop): Dropout(p=0.0, inplace=False)
  (input_proj): InputProj(
    (proj): Sequential(
      (0): Conv2d(3, 32, kernel_size=(3, 3), stride=(1, 1), padding=(1, 1))
      (1): LeakyReLU(negative_slope=0.01, inplace=True)
    )
  )
  (output_proj): OutputProj(
    (proj): Sequential(
      (0): Conv2d(64, 6, kernel_size=(3, 3), stride=(1, 1), padding=(1, 1))
    )
  )
  (encoderlayer_0): BasicUformerLayer(
    dim=32, input_resolution=(512, 512), depth=2
    (blocks): ModuleList(
      (0): LeWinTransformerBlock(
        dim=32, input_resolution=(512, 512), num_heads=1, win_size=8, shift_size=0, mlp_ratio=4.0
        (norm1): LayerNorm((32,), eps=1e-05, elementwise_affine=True)
        (attn): WindowAttention(
          dim=32, win_size=(8, 8), num_heads=1
          (qkv): LinearProjection(
            (to_q): Linear(in_features=32, out_features=32, bias=True)
            (to_kv): Linear(in_features=32, out_features=64, bias=True)
          )
          (attn_drop): Dropout(p=0.0, inplace=False)
          (proj): Linear(in_features=32, out_features=32, bias=True)
          (se_layer): Identity()
          (proj_drop): Dropout(p=0.0, inplace=False)
          (softmax): Softmax(dim=-1)
        )
        (drop_path): Identity()
        (norm2): LayerNorm((32,), eps=1e-05, elementwise_affine=True)
        (mlp): Mlp(
          (fc1): Linear(in_features=32, out_features=128, bias=True)
          (act): GELU()
          (fc2): Linear(in_features=128, out_features=32, bias=True)
          (drop): Dropout(p=0.0, inplace=False)
        )
      )
      (1): LeWinTransformerBlock(
        dim=32, input_resolution=(512, 512), num_heads=1, win_size=8, shift_size=4, mlp_ratio=4.0
        (norm1): LayerNorm((32,), eps=1e-05, elementwise_affine=True)
        (attn): WindowAttention(
          dim=32, win_size=(8, 8), num_heads=1
          (qkv): LinearProjection(
            (to_q): Linear(in_features=32, out_features=32, bias=True)
            (to_kv): Linear(in_features=32, out_features=64, bias=True)
          )
          (attn_drop): Dropout(p=0.0, inplace=False)
          (proj): Linear(in_features=32, out_features=32, bias=True)
          (se_layer): Identity()
          (proj_drop): Dropout(p=0.0, inplace=False)
          (softmax): Softmax(dim=-1)
        )
        (drop_path): DropPath(drop_prob=0.014)
        (norm2): LayerNorm((32,), eps=1e-05, elementwise_affine=True)
        (mlp): Mlp(
          (fc1): Linear(in_features=32, out_features=128, bias=True)
          (act): GELU()
          (fc2): Linear(in_features=128, out_features=32, bias=True)
          (drop): Dropout(p=0.0, inplace=False)
        )
      )
    )
  )
  (dowsample_0): Downsample(
    (conv): Sequential(
      (0): Conv2d(32, 64, kernel_size=(4, 4), stride=(2, 2), padding=(1, 1))
    )
  )
  (encoderlayer_1): BasicUformerLayer(
    dim=64, input_resolution=(256, 256), depth=2
    (blocks): ModuleList(
      (0): LeWinTransformerBlock(
        dim=64, input_resolution=(256, 256), num_heads=2, win_size=8, shift_size=0, mlp_ratio=4.0
        (norm1): LayerNorm((64,), eps=1e-05, elementwise_affine=True)
        (attn): WindowAttention(
          dim=64, win_size=(8, 8), num_heads=2
          (qkv): LinearProjection(
            (to_q): Linear(in_features=64, out_features=64, bias=True)
            (to_kv): Linear(in_features=64, out_features=128, bias=True)
          )
          (attn_drop): Dropout(p=0.0, inplace=False)
          (proj): Linear(in_features=64, out_features=64, bias=True)
          (se_layer): Identity()
          (proj_drop): Dropout(p=0.0, inplace=False)
          (softmax): Softmax(dim=-1)
        )
        (drop_path): DropPath(drop_prob=0.029)
        (norm2): LayerNorm((64,), eps=1e-05, elementwise_affine=True)
        (mlp): Mlp(
          (fc1): Linear(in_features=64, out_features=256, bias=True)
          (act): GELU()
          (fc2): Linear(in_features=256, out_features=64, bias=True)
          (drop): Dropout(p=0.0, inplace=False)
        )
      )
      (1): LeWinTransformerBlock(
        dim=64, input_resolution=(256, 256), num_heads=2, win_size=8, shift_size=4, mlp_ratio=4.0
        (norm1): LayerNorm((64,), eps=1e-05, elementwise_affine=True)
        (attn): WindowAttention(
          dim=64, win_size=(8, 8), num_heads=2
          (qkv): LinearProjection(
            (to_q): Linear(in_features=64, out_features=64, bias=True)
            (to_kv): Linear(in_features=64, out_features=128, bias=True)
          )
          (attn_drop): Dropout(p=0.0, inplace=False)
          (proj): Linear(in_features=64, out_features=64, bias=True)
          (se_layer): Identity()
          (proj_drop): Dropout(p=0.0, inplace=False)
          (softmax): Softmax(dim=-1)
        )
        (drop_path): DropPath(drop_prob=0.043)
        (norm2): LayerNorm((64,), eps=1e-05, elementwise_affine=True)
        (mlp): Mlp(
          (fc1): Linear(in_features=64, out_features=256, bias=True)
          (act): GELU()
          (fc2): Linear(in_features=256, out_features=64, bias=True)
          (drop): Dropout(p=0.0, inplace=False)
        )
      )
    )
  )
  (dowsample_1): Downsample(
    (conv): Sequential(
      (0): Conv2d(64, 128, kernel_size=(4, 4), stride=(2, 2), padding=(1, 1))
    )
  )
  (encoderlayer_2): BasicUformerLayer(
    dim=128, input_resolution=(128, 128), depth=2
    (blocks): ModuleList(
      (0): LeWinTransformerBlock(
        dim=128, input_resolution=(128, 128), num_heads=4, win_size=8, shift_size=0, mlp_ratio=4.0
        (norm1): LayerNorm((128,), eps=1e-05, elementwise_affine=True)
        (attn): WindowAttention(
          dim=128, win_size=(8, 8), num_heads=4
          (qkv): LinearProjection(
            (to_q): Linear(in_features=128, out_features=128, bias=True)
            (to_kv): Linear(in_features=128, out_features=256, bias=True)
          )
          (attn_drop): Dropout(p=0.0, inplace=False)
          (proj): Linear(in_features=128, out_features=128, bias=True)
          (se_layer): Identity()
          (proj_drop): Dropout(p=0.0, inplace=False)
          (softmax): Softmax(dim=-1)
        )
        (drop_path): DropPath(drop_prob=0.057)
        (norm2): LayerNorm((128,), eps=1e-05, elementwise_affine=True)
        (mlp): Mlp(
          (fc1): Linear(in_features=128, out_features=512, bias=True)
          (act): GELU()
          (fc2): Linear(in_features=512, out_features=128, bias=True)
          (drop): Dropout(p=0.0, inplace=False)
        )
      )
      (1): LeWinTransformerBlock(
        dim=128, input_resolution=(128, 128), num_heads=4, win_size=8, shift_size=4, mlp_ratio=4.0
        (norm1): LayerNorm((128,), eps=1e-05, elementwise_affine=True)
        (attn): WindowAttention(
          dim=128, win_size=(8, 8), num_heads=4
          (qkv): LinearProjection(
            (to_q): Linear(in_features=128, out_features=128, bias=True)
            (to_kv): Linear(in_features=128, out_features=256, bias=True)
          )
          (attn_drop): Dropout(p=0.0, inplace=False)
          (proj): Linear(in_features=128, out_features=128, bias=True)
          (se_layer): Identity()
          (proj_drop): Dropout(p=0.0, inplace=False)
          (softmax): Softmax(dim=-1)
        )
        (drop_path): DropPath(drop_prob=0.071)
        (norm2): LayerNorm((128,), eps=1e-05, elementwise_affine=True)
        (mlp): Mlp(
          (fc1): Linear(in_features=128, out_features=512, bias=True)
          (act): GELU()
          (fc2): Linear(in_features=512, out_features=128, bias=True)
          (drop): Dropout(p=0.0, inplace=False)
        )
      )
    )
  )
  (dowsample_2): Downsample(
    (conv): Sequential(
      (0): Conv2d(128, 256, kernel_size=(4, 4), stride=(2, 2), padding=(1, 1))
    )
  )
  (encoderlayer_3): BasicUformerLayer(
    dim=256, input_resolution=(64, 64), depth=2
    (blocks): ModuleList(
      (0): LeWinTransformerBlock(
        dim=256, input_resolution=(64, 64), num_heads=8, win_size=8, shift_size=0, mlp_ratio=4.0
        (norm1): LayerNorm((256,), eps=1e-05, elementwise_affine=True)
        (attn): WindowAttention(
          dim=256, win_size=(8, 8), num_heads=8
          (qkv): LinearProjection(
            (to_q): Linear(in_features=256, out_features=256, bias=True)
            (to_kv): Linear(in_features=256, out_features=512, bias=True)
          )
          (attn_drop): Dropout(p=0.0, inplace=False)
          (proj): Linear(in_features=256, out_features=256, bias=True)
          (se_layer): Identity()
          (proj_drop): Dropout(p=0.0, inplace=False)
          (softmax): Softmax(dim=-1)
        )
        (drop_path): DropPath(drop_prob=0.086)
        (norm2): LayerNorm((256,), eps=1e-05, elementwise_affine=True)
        (mlp): Mlp(
          (fc1): Linear(in_features=256, out_features=1024, bias=True)
          (act): GELU()
          (fc2): Linear(in_features=1024, out_features=256, bias=True)
          (drop): Dropout(p=0.0, inplace=False)
        )
      )
      (1): LeWinTransformerBlock(
        dim=256, input_resolution=(64, 64), num_heads=8, win_size=8, shift_size=4, mlp_ratio=4.0
        (norm1): LayerNorm((256,), eps=1e-05, elementwise_affine=True)
        (attn): WindowAttention(
          dim=256, win_size=(8, 8), num_heads=8
          (qkv): LinearProjection(
            (to_q): Linear(in_features=256, out_features=256, bias=True)
            (to_kv): Linear(in_features=256, out_features=512, bias=True)
          )
          (attn_drop): Dropout(p=0.0, inplace=False)
          (proj): Linear(in_features=256, out_features=256, bias=True)
          (se_layer): Identity()
          (proj_drop): Dropout(p=0.0, inplace=False)
          (softmax): Softmax(dim=-1)
        )
        (drop_path): DropPath(drop_prob=0.100)
        (norm2): LayerNorm((256,), eps=1e-05, elementwise_affine=True)
        (mlp): Mlp(
          (fc1): Linear(in_features=256, out_features=1024, bias=True)
          (act): GELU()
          (fc2): Linear(in_features=1024, out_features=256, bias=True)
          (drop): Dropout(p=0.0, inplace=False)
        )
      )
    )
  )
  (dowsample_3): Downsample(
    (conv): Sequential(
      (0): Conv2d(256, 512, kernel_size=(4, 4), stride=(2, 2), padding=(1, 1))
    )
  )
  (conv): BasicUformerLayer(
    dim=512, input_resolution=(32, 32), depth=2
    (blocks): ModuleList(
      (0): LeWinTransformerBlock(
        dim=512, input_resolution=(32, 32), num_heads=16, win_size=8, shift_size=0, mlp_ratio=4.0
        (norm1): LayerNorm((512,), eps=1e-05, elementwise_affine=True)
        (attn): WindowAttention(
          dim=512, win_size=(8, 8), num_heads=16
          (qkv): LinearProjection(
            (to_q): Linear(in_features=512, out_features=512, bias=True)
            (to_kv): Linear(in_features=512, out_features=1024, bias=True)
          )
          (attn_drop): Dropout(p=0.0, inplace=False)
          (proj): Linear(in_features=512, out_features=512, bias=True)
          (se_layer): Identity()
          (proj_drop): Dropout(p=0.0, inplace=False)
          (softmax): Softmax(dim=-1)
        )
        (drop_path): DropPath(drop_prob=0.100)
        (norm2): LayerNorm((512,), eps=1e-05, elementwise_affine=True)
        (mlp): Mlp(
          (fc1): Linear(in_features=512, out_features=2048, bias=True)
          (act): GELU()
          (fc2): Linear(in_features=2048, out_features=512, bias=True)
          (drop): Dropout(p=0.0, inplace=False)
        )
      )
      (1): LeWinTransformerBlock(
        dim=512, input_resolution=(32, 32), num_heads=16, win_size=8, shift_size=4, mlp_ratio=4.0
        (norm1): LayerNorm((512,), eps=1e-05, elementwise_affine=True)
        (attn): WindowAttention(
          dim=512, win_size=(8, 8), num_heads=16
          (qkv): LinearProjection(
            (to_q): Linear(in_features=512, out_features=512, bias=True)
            (to_kv): Linear(in_features=512, out_features=1024, bias=True)
          )
          (attn_drop): Dropout(p=0.0, inplace=False)
          (proj): Linear(in_features=512, out_features=512, bias=True)
          (se_layer): Identity()
          (proj_drop): Dropout(p=0.0, inplace=False)
          (softmax): Softmax(dim=-1)
        )
        (drop_path): DropPath(drop_prob=0.100)
        (norm2): LayerNorm((512,), eps=1e-05, elementwise_affine=True)
        (mlp): Mlp(
          (fc1): Linear(in_features=512, out_features=2048, bias=True)
          (act): GELU()
          (fc2): Linear(in_features=2048, out_features=512, bias=True)
          (drop): Dropout(p=0.0, inplace=False)
        )
      )
    )
  )
  (upsample_0): Upsample(
    (deconv): Sequential(
      (0): ConvTranspose2d(512, 256, kernel_size=(2, 2), stride=(2, 2))
    )
  )
  (decoderlayer_0): BasicUformerLayer(
    dim=512, input_resolution=(64, 64), depth=2
    (blocks): ModuleList(
      (0): LeWinTransformerBlock(
        dim=512, input_resolution=(64, 64), num_heads=16, win_size=8, shift_size=0, mlp_ratio=4.0
        (norm1): LayerNorm((512,), eps=1e-05, elementwise_affine=True)
        (attn): WindowAttention(
          dim=512, win_size=(8, 8), num_heads=16
          (qkv): LinearProjection(
            (to_q): Linear(in_features=512, out_features=512, bias=True)
            (to_kv): Linear(in_features=512, out_features=1024, bias=True)
          )
          (attn_drop): Dropout(p=0.0, inplace=False)
          (proj): Linear(in_features=512, out_features=512, bias=True)
          (se_layer): Identity()
          (proj_drop): Dropout(p=0.0, inplace=False)
          (softmax): Softmax(dim=-1)
        )
        (drop_path): DropPath(drop_prob=0.100)
        (norm2): LayerNorm((512,), eps=1e-05, elementwise_affine=True)
        (mlp): Mlp(
          (fc1): Linear(in_features=512, out_features=2048, bias=True)
          (act): GELU()
          (fc2): Linear(in_features=2048, out_features=512, bias=True)
          (drop): Dropout(p=0.0, inplace=False)
        )
      )
      (1): LeWinTransformerBlock(
        dim=512, input_resolution=(64, 64), num_heads=16, win_size=8, shift_size=4, mlp_ratio=4.0
        (norm1): LayerNorm((512,), eps=1e-05, elementwise_affine=True)
        (attn): WindowAttention(
          dim=512, win_size=(8, 8), num_heads=16
          (qkv): LinearProjection(
            (to_q): Linear(in_features=512, out_features=512, bias=True)
            (to_kv): Linear(in_features=512, out_features=1024, bias=True)
          )
          (attn_drop): Dropout(p=0.0, inplace=False)
          (proj): Linear(in_features=512, out_features=512, bias=True)
          (se_layer): Identity()
          (proj_drop): Dropout(p=0.0, inplace=False)
          (softmax): Softmax(dim=-1)
        )
        (drop_path): DropPath(drop_prob=0.086)
        (norm2): LayerNorm((512,), eps=1e-05, elementwise_affine=True)
        (mlp): Mlp(
          (fc1): Linear(in_features=512, out_features=2048, bias=True)
          (act): GELU()
          (fc2): Linear(in_features=2048, out_features=512, bias=True)
          (drop): Dropout(p=0.0, inplace=False)
        )
      )
    )
  )
  (upsample_1): Upsample(
    (deconv): Sequential(
      (0): ConvTranspose2d(512, 128, kernel_size=(2, 2), stride=(2, 2))
    )
  )
  (decoderlayer_1): BasicUformerLayer(
    dim=256, input_resolution=(128, 128), depth=2
    (blocks): ModuleList(
      (0): LeWinTransformerBlock(
        dim=256, input_resolution=(128, 128), num_heads=8, win_size=8, shift_size=0, mlp_ratio=4.0
        (norm1): LayerNorm((256,), eps=1e-05, elementwise_affine=True)
        (attn): WindowAttention(
          dim=256, win_size=(8, 8), num_heads=8
          (qkv): LinearProjection(
            (to_q): Linear(in_features=256, out_features=256, bias=True)
            (to_kv): Linear(in_features=256, out_features=512, bias=True)
          )
          (attn_drop): Dropout(p=0.0, inplace=False)
          (proj): Linear(in_features=256, out_features=256, bias=True)
          (se_layer): Identity()
          (proj_drop): Dropout(p=0.0, inplace=False)
          (softmax): Softmax(dim=-1)
        )
        (drop_path): DropPath(drop_prob=0.071)
        (norm2): LayerNorm((256,), eps=1e-05, elementwise_affine=True)
        (mlp): Mlp(
          (fc1): Linear(in_features=256, out_features=1024, bias=True)
          (act): GELU()
          (fc2): Linear(in_features=1024, out_features=256, bias=True)
          (drop): Dropout(p=0.0, inplace=False)
        )
      )
      (1): LeWinTransformerBlock(
        dim=256, input_resolution=(128, 128), num_heads=8, win_size=8, shift_size=4, mlp_ratio=4.0
        (norm1): LayerNorm((256,), eps=1e-05, elementwise_affine=True)
        (attn): WindowAttention(
          dim=256, win_size=(8, 8), num_heads=8
          (qkv): LinearProjection(
            (to_q): Linear(in_features=256, out_features=256, bias=True)
            (to_kv): Linear(in_features=256, out_features=512, bias=True)
          )
          (attn_drop): Dropout(p=0.0, inplace=False)
          (proj): Linear(in_features=256, out_features=256, bias=True)
          (se_layer): Identity()
          (proj_drop): Dropout(p=0.0, inplace=False)
          (softmax): Softmax(dim=-1)
        )
        (drop_path): DropPath(drop_prob=0.057)
        (norm2): LayerNorm((256,), eps=1e-05, elementwise_affine=True)
        (mlp): Mlp(
          (fc1): Linear(in_features=256, out_features=1024, bias=True)
          (act): GELU()
          (fc2): Linear(in_features=1024, out_features=256, bias=True)
          (drop): Dropout(p=0.0, inplace=False)
        )
      )
    )
  )
  (upsample_2): Upsample(
    (deconv): Sequential(
      (0): ConvTranspose2d(256, 64, kernel_size=(2, 2), stride=(2, 2))
    )
  )
  (decoderlayer_2): BasicUformerLayer(
    dim=128, input_resolution=(256, 256), depth=2
    (blocks): ModuleList(
      (0): LeWinTransformerBlock(
        dim=128, input_resolution=(256, 256), num_heads=4, win_size=8, shift_size=0, mlp_ratio=4.0
        (norm1): LayerNorm((128,), eps=1e-05, elementwise_affine=True)
        (attn): WindowAttention(
          dim=128, win_size=(8, 8), num_heads=4
          (qkv): LinearProjection(
            (to_q): Linear(in_features=128, out_features=128, bias=True)
            (to_kv): Linear(in_features=128, out_features=256, bias=True)
          )
          (attn_drop): Dropout(p=0.0, inplace=False)
          (proj): Linear(in_features=128, out_features=128, bias=True)
          (se_layer): Identity()
          (proj_drop): Dropout(p=0.0, inplace=False)
          (softmax): Softmax(dim=-1)
        )
        (drop_path): DropPath(drop_prob=0.043)
        (norm2): LayerNorm((128,), eps=1e-05, elementwise_affine=True)
        (mlp): Mlp(
          (fc1): Linear(in_features=128, out_features=512, bias=True)
          (act): GELU()
          (fc2): Linear(in_features=512, out_features=128, bias=True)
          (drop): Dropout(p=0.0, inplace=False)
        )
      )
      (1): LeWinTransformerBlock(
        dim=128, input_resolution=(256, 256), num_heads=4, win_size=8, shift_size=4, mlp_ratio=4.0
        (norm1): LayerNorm((128,), eps=1e-05, elementwise_affine=True)
        (attn): WindowAttention(
          dim=128, win_size=(8, 8), num_heads=4
          (qkv): LinearProjection(
            (to_q): Linear(in_features=128, out_features=128, bias=True)
            (to_kv): Linear(in_features=128, out_features=256, bias=True)
          )
          (attn_drop): Dropout(p=0.0, inplace=False)
          (proj): Linear(in_features=128, out_features=128, bias=True)
          (se_layer): Identity()
          (proj_drop): Dropout(p=0.0, inplace=False)
          (softmax): Softmax(dim=-1)
        )
        (drop_path): DropPath(drop_prob=0.029)
        (norm2): LayerNorm((128,), eps=1e-05, elementwise_affine=True)
        (mlp): Mlp(
          (fc1): Linear(in_features=128, out_features=512, bias=True)
          (act): GELU()
          (fc2): Linear(in_features=512, out_features=128, bias=True)
          (drop): Dropout(p=0.0, inplace=False)
        )
      )
    )
  )
  (upsample_3): Upsample(
    (deconv): Sequential(
      (0): ConvTranspose2d(128, 32, kernel_size=(2, 2), stride=(2, 2))
    )
  )
  (decoderlayer_3): BasicUformerLayer(
    dim=64, input_resolution=(512, 512), depth=2
    (blocks): ModuleList(
      (0): LeWinTransformerBlock(
        dim=64, input_resolution=(512, 512), num_heads=2, win_size=8, shift_size=0, mlp_ratio=4.0
        (norm1): LayerNorm((64,), eps=1e-05, elementwise_affine=True)
        (attn): WindowAttention(
          dim=64, win_size=(8, 8), num_heads=2
          (qkv): LinearProjection(
            (to_q): Linear(in_features=64, out_features=64, bias=True)
            (to_kv): Linear(in_features=64, out_features=128, bias=True)
          )
          (attn_drop): Dropout(p=0.0, inplace=False)
          (proj): Linear(in_features=64, out_features=64, bias=True)
          (se_layer): Identity()
          (proj_drop): Dropout(p=0.0, inplace=False)
          (softmax): Softmax(dim=-1)
        )
        (drop_path): DropPath(drop_prob=0.014)
        (norm2): LayerNorm((64,), eps=1e-05, elementwise_affine=True)
        (mlp): Mlp(
          (fc1): Linear(in_features=64, out_features=256, bias=True)
          (act): GELU()
          (fc2): Linear(in_features=256, out_features=64, bias=True)
          (drop): Dropout(p=0.0, inplace=False)
        )
      )
      (1): LeWinTransformerBlock(
        dim=64, input_resolution=(512, 512), num_heads=2, win_size=8, shift_size=4, mlp_ratio=4.0
        (norm1): LayerNorm((64,), eps=1e-05, elementwise_affine=True)
        (attn): WindowAttention(
          dim=64, win_size=(8, 8), num_heads=2
          (qkv): LinearProjection(
            (to_q): Linear(in_features=64, out_features=64, bias=True)
            (to_kv): Linear(in_features=64, out_features=128, bias=True)
          )
          (attn_drop): Dropout(p=0.0, inplace=False)
          (proj): Linear(in_features=64, out_features=64, bias=True)
          (se_layer): Identity()
          (proj_drop): Dropout(p=0.0, inplace=False)
          (softmax): Softmax(dim=-1)
        )
        (drop_path): Identity()
        (norm2): LayerNorm((64,), eps=1e-05, elementwise_affine=True)
        (mlp): Mlp(
          (fc1): Linear(in_features=64, out_features=256, bias=True)
          (act): GELU()
          (fc2): Linear(in_features=256, out_features=64, bias=True)
          (drop): Dropout(p=0.0, inplace=False)
        )
      )
    )
  )
  (activation): Sequential(
    (0): Sigmoid()
  )
)
2023-04-12 06:49:32,125 INFO: Loss [L_Abs_pure] is created.
2023-04-12 06:49:33,916 INFO: Loss [L_percepture] is created.
2023-04-12 06:49:33,919 INFO: Model [DeflareModel] is created.
2023-04-12 06:49:34,223 INFO: Start training from epoch: 0, iter: 0
…
